…
2023-11-10 02:22:54 | INFO | torch.distributed.distributed_c10d | Added key: store_based_barrier_key:4 to store for rank: 0
2023-11-10 02:22:54 | INFO | torch.distributed.distributed_c10d | Rank 0: Completed store-based barrier for key:store_based_barrier_key:4 with 2 nodes.
2023-11-10 02:22:54 | INFO | torch.distributed.distributed_c10d | Added key: store_based_barrier_key:5 to store for rank: 0
2023-11-10 02:22:54 | INFO | torch.distributed.distributed_c10d | Rank 0: Completed store-based barrier for key:store_based_barrier_key:5 with 2 nodes.
2023-11-10 02:22:54 | INFO | fairseq_cli.train | LanguageModel(
  (decoder): LMDecoder(
    (dropout_module): Dropout(p=0.1, inplace=False)
    (embed_tokens): Embedding(33280, 256, padding_idx=1)
    (embed_positions): SinusoidalPositionalEmbedding()
    (output_projection): Linear(in_features=256, out_features=33280, bias=False)
    (layers): ModuleList(
      (0-1): 2 x BrainformerDecoderLayer(
        (dropout_module): Dropout(p=0.1, inplace=False)
        (self_attn): MultiheadAttention(
          (k_proj): Linear(in_features=256, out_features=256, bias=True)
          (v_proj): Linear(in_features=256, out_features=256, bias=True)
          (q_proj): Linear(in_features=256, out_features=256, bias=True)
          (out_proj): Linear(in_features=256, out_features=256, bias=True)
          (dropout_module): Dropout(p=0.1, inplace=False)
        )
        (self_attn_layer_norm): LayerNorm((256,), eps=1e-05, elementwise_affine=True)
        (ffn): FeedForwardNetwork(
          (activation_dropout_module): Dropout(p=0.0, inplace=False)
          (dropout_module): Dropout(p=0.1, inplace=False)
          (fc1): Linear(in_features=256, out_features=256, bias=True)
          (fc2): Linear(in_features=256, out_features=256, bias=True)
        )
        (ffn1): FeedForwardNetwork(
          (activation_dropout_module): Dropout(p=0.0, inplace=False)
          (dropout_module): Dropout(p=0.1, inplace=False)
          (fc1): Linear(in_features=256, out_features=256, bias=True)
          (fc2): Linear(in_features=256, out_features=256, bias=True)
        )
        (ffn2): FeedForwardNetwork(
          (activation_dropout_module): Dropout(p=0.0, inplace=False)
          (dropout_module): Dropout(p=0.1, inplace=False)
          (fc1): Linear(in_features=256, out_features=256, bias=True)
          (fc2): Linear(in_features=256, out_features=256, bias=True)
        )
        (ffn3): FeedForwardNetwork(
          (activation_dropout_module): Dropout(p=0.0, inplace=False)
          (dropout_module): Dropout(p=0.1, inplace=False)
          (fc1): Linear(in_features=256, out_features=256, bias=True)
          (fc2): Linear(in_features=256, out_features=256, bias=True)
        )
        (moe_layer): MOELayer(
          (gate): Top2Gate(
            (wg_reduction): Linear(in_features=256, out_features=16, bias=False)
          )
          (experts): ModuleList(
            (0-7): 8 x FeedForwardNetwork(
              (activation_dropout_module): Dropout(p=0.0, inplace=False)
              (dropout_module): Dropout(p=0.1, inplace=False)
              (fc1): Linear(in_features=256, out_features=256, bias=True)
              (fc2): Linear(in_features=256, out_features=256, bias=True)
            )
          )
        )
        (moe_layer1): MOELayer(
          (gate): Top2Gate(
            (wg_reduction): Linear(in_features=256, out_features=16, bias=False)
          )
          (experts): ModuleList(
            (0-7): 8 x FeedForwardNetwork(
              (activation_dropout_module): Dropout(p=0.0, inplace=False)
              (dropout_module): Dropout(p=0.1, inplace=False)
              (fc1): Linear(in_features=256, out_features=256, bias=True)
              (fc2): Linear(in_features=256, out_features=256, bias=True)
            )
          )
        )
        (moe_layer2): MOELayer(
          (gate): Top2Gate(
            (wg_reduction): Linear(in_features=256, out_features=16, bias=False)
          )
          (experts): ModuleList(
            (0-7): 8 x FeedForwardNetwork(
              (activation_dropout_module): Dropout(p=0.0, inplace=False)
              (dropout_module): Dropout(p=0.1, inplace=False)
              (fc1): Linear(in_features=256, out_features=256, bias=True)
              (fc2): Linear(in_features=256, out_features=256, bias=True)
            )
          )
        )
        (final_layer_norm): LayerNorm((256,), eps=1e-05, elementwise_affine=True)
        (final_layer_norm1): LayerNorm((256,), eps=1e-05, elementwise_affine=True)
        (final_layer_norm2): LayerNorm((256,), eps=1e-05, elementwise_affine=True)
        (final_layer_norm3): LayerNorm((256,), eps=1e-05, elementwise_affine=True)
        (final_layer_norm4): LayerNorm((256,), eps=1e-05, elementwise_affine=True)
        (final_layer_norm5): LayerNorm((256,), eps=1e-05, elementwise_affine=True)
        (final_layer_norm6): LayerNorm((256,), eps=1e-05, elementwise_affine=True)
      )
    )
    (layer_norm): LayerNorm((256,), eps=1e-05, elementwise_affine=True)
  )
)
2023-11-10 02:22:54 | INFO | fairseq_cli.train | task: LanguageModelingTask
2023-11-10 02:22:54 | INFO | fairseq_cli.train | model: LanguageModel
2023-11-10 02:22:54 | INFO | fairseq_cli.train | criterion: MoECrossEntropyCriterion
2023-11-10 02:22:54 | INFO | fairseq_cli.train | num. non-expert model params: 10,133,504 (num. trained: 10,133,504)
…
2023-11-10 02:33:38 | INFO | torch.distributed.distributed_c10d | Added key: store_based_barrier_key:4 to store for rank: 0
2023-11-10 02:33:38 | INFO | torch.distributed.distributed_c10d | Rank 0: Completed store-based barrier for key:store_based_barrier_key:4 with 2 nodes.
2023-11-10 02:33:38 | INFO | torch.distributed.distributed_c10d | Added key: store_based_barrier_key:5 to store for rank: 0
2023-11-10 02:33:38 | INFO | torch.distributed.distributed_c10d | Rank 0: Completed store-based barrier for key:store_based_barrier_key:5 with 2 nodes.
2023-11-10 02:33:38 | INFO | fairseq_cli.train | LanguageModel(
  (decoder): LMDecoder(
    (dropout_module): Dropout(p=0.1, inplace=False)
    (embed_tokens): Embedding(33280, 256, padding_idx=1)
    (embed_positions): SinusoidalPositionalEmbedding()
    (output_projection): Linear(in_features=256, out_features=33280, bias=False)
    (layers): ModuleList(
      (0-3): 4 x BrainformerDecoderLayer(
        (dropout_module): Dropout(p=0.1, inplace=False)
        (self_attn): MultiheadAttention(
          (k_proj): Linear(in_features=256, out_features=256, bias=True)
          (v_proj): Linear(in_features=256, out_features=256, bias=True)
          (q_proj): Linear(in_features=256, out_features=256, bias=True)
          (out_proj): Linear(in_features=256, out_features=256, bias=True)
          (dropout_module): Dropout(p=0.1, inplace=False)
        )
        (self_attn_layer_norm): LayerNorm((256,), eps=1e-05, elementwise_affine=True)
        (ffn): FeedForwardNetwork(
          (activation_dropout_module): Dropout(p=0.0, inplace=False)
          (dropout_module): Dropout(p=0.1, inplace=False)
          (fc1): Linear(in_features=256, out_features=512, bias=True)
          (fc2): Linear(in_features=512, out_features=256, bias=True)
        )
        (ffn1): FeedForwardNetwork(
          (activation_dropout_module): Dropout(p=0.0, inplace=False)
          (dropout_module): Dropout(p=0.1, inplace=False)
          (fc1): Linear(in_features=256, out_features=512, bias=True)
          (fc2): Linear(in_features=512, out_features=256, bias=True)
        )
        (ffn2): FeedForwardNetwork(
          (activation_dropout_module): Dropout(p=0.0, inplace=False)
          (dropout_module): Dropout(p=0.1, inplace=False)
          (fc1): Linear(in_features=256, out_features=512, bias=True)
          (fc2): Linear(in_features=512, out_features=256, bias=True)
        )
        (ffn3): FeedForwardNetwork(
          (activation_dropout_module): Dropout(p=0.0, inplace=False)
          (dropout_module): Dropout(p=0.1, inplace=False)
          (fc1): Linear(in_features=256, out_features=512, bias=True)
          (fc2): Linear(in_features=512, out_features=256, bias=True)
        )
        (moe_layer): MOELayer(
          (gate): Top2Gate(
            (wg_reduction): Linear(in_features=256, out_features=16, bias=False)
          )
          (experts): ModuleList(
            (0-7): 8 x FeedForwardNetwork(
              (activation_dropout_module): Dropout(p=0.0, inplace=False)
              (dropout_module): Dropout(p=0.1, inplace=False)
              (fc1): Linear(in_features=256, out_features=512, bias=True)
              (fc2): Linear(in_features=512, out_features=256, bias=True)
            )
          )
        )
        (moe_layer1): MOELayer(
          (gate): Top2Gate(
            (wg_reduction): Linear(in_features=256, out_features=16, bias=False)
          )
          (experts): ModuleList(
            (0-7): 8 x FeedForwardNetwork(
              (activation_dropout_module): Dropout(p=0.0, inplace=False)
              (dropout_module): Dropout(p=0.1, inplace=False)
              (fc1): Linear(in_features=256, out_features=512, bias=True)
              (fc2): Linear(in_features=512, out_features=256, bias=True)
            )
          )
        )
        (moe_layer2): MOELayer(
          (gate): Top2Gate(
            (wg_reduction): Linear(in_features=256, out_features=16, bias=False)
          )
          (experts): ModuleList(
            (0-7): 8 x FeedForwardNetwork(
              (activation_dropout_module): Dropout(p=0.0, inplace=False)
              (dropout_module): Dropout(p=0.1, inplace=False)
              (fc1): Linear(in_features=256, out_features=512, bias=True)
              (fc2): Linear(in_features=512, out_features=256, bias=True)
            )
          )
        )
        (final_layer_norm): LayerNorm((256,), eps=1e-05, elementwise_affine=True)
        (final_layer_norm1): LayerNorm((256,), eps=1e-05, elementwise_affine=True)
        (final_layer_norm2): LayerNorm((256,), eps=1e-05, elementwise_affine=True)
        (final_layer_norm3): LayerNorm((256,), eps=1e-05, elementwise_affine=True)
        (final_layer_norm4): LayerNorm((256,), eps=1e-05, elementwise_affine=True)
        (final_layer_norm5): LayerNorm((256,), eps=1e-05, elementwise_affine=True)
        (final_layer_norm6): LayerNorm((256,), eps=1e-05, elementwise_affine=True)
      )
    )
    (layer_norm): LayerNorm((256,), eps=1e-05, elementwise_affine=True)
  )
)
2023-11-10 02:33:38 | INFO | fairseq_cli.train | task: LanguageModelingTask
2023-11-10 02:33:38 | INFO | fairseq_cli.train | model: LanguageModel
2023-11-10 02:33:38 | INFO | fairseq_cli.train | criterion: MoECrossEntropyCriterion
2023-11-10 02:33:38 | INFO | fairseq_cli.train | num. non-expert model params: 13,848,064 (num. trained: 13,848,064)
…
